GANs/saved_models/python/NCritic10BatchSize500Diverged.pth (torch, 180806 bytes, 51 tensors)

h_11.weight f4 [32, 12]
00000000: 8520 9e3e a60a 9e3e b062 4abd a8ef d03e
00000010: 63dd e93c 3071 cdbd ae4f 16be 76b2 063e
00000020: 2ad5 e03e e630 91be 8687 073e 0b58 253d
00000030: 2bc1 4e3e 35bd 013e acf0 db3d 1eba d83d
00000040: d361 e13e aa4c 14be 5217 173e 1c78 513e
00000050: dbf4 9ebd 76d9 083e 9c5e dabc 8f39 533e
00000060: 5fff 903d 89b8 193e 7d60 853d a7b1 15be
00000070: d42e 723e 308e 05bf e0d8 a23e b931 83be
00000080: 4e7a 003f 4b5a 783e 75cf 96bc 3cee 7f3e
00000090: f286 dcbd ba92 543e 980d 3a3e e912 b9bd
000000a0: 3f6e b13e 7696 3ebe e764 ff3e 03dd 473e
000000b0: acc8 a33d a607 6bbd baad b13e c33f 883e
000000c0: 806b 8f3e 3cc8 e4bd 3e22 98be 5a74 35be
000000d0: fb02 b7be 0b63 353e 82bb ba3d 5322 423e
000000e0: 984f 25be b3e0 91bc 9ef3 a43d dda0 77be
000000f0: 843a 843d 618d 47be 48d4 af3e a4c7 36bd
00000100: fc13 113e d94a 8bbe 9281 f63e 60df 01be
00000110: 96e2 4dbe da70 a2be 386a 803e 9b75 813b
00000120: a94f 0c3e 188f 87be 1986 a1be e750 423b
00000130: 251a ccbd 0cf1 11be 1fc6 713e 9423 033f
00000140: c57f 893d d8ec 5abe d06c 5e3e dc0b 57be
00000150: 309f 9b3d b536 66be 976a 493e 2071 7e3c
00000160: 0cc0 1cbe 10ae 823e 1f7c cf3d 7f64 2e3e
00000170: 73c8 8e3d 4a05 b63e dee9 74be 1434 0abe
00000180: ea5a c43e 7fa1 5e3b a7a6 0fbd 96df 7bbe
00000190: 559e 68be fb1e b53d 4b93 c63d 586d 94be
000001a0: cb8b afbd aee3 01be cac2 4fbe a82f 74be
000001b0: 1fe7 69be 2c58 a8be bc5e ff3d 1f93 9d3d
000001c0: 568c 593e bdd9 babe a9ff 9bbd ec9b 153e
000001d0: 65f9 a43d cfb8 7bbe f0dd 84bd d5d4 89bc
000001e0: 650d 47be f9c1 1fbe 53b2 ba3d a281 2ebd
000001f0: 28ef 3abd d94f 41be 1e5d 32be f1e3 02be
00000200: 9f79 883e 0593 66bb 5512 243e 3c3b 7f3e
00000210: 8cdf b9be a384 a53e 6821 14be 8859 1d3d
00000220: 0ab8 bdbd 2546 b3be bd2c 973e 5432 333e
00000230: 68f8 363c 51a1 27be 0c1f f03d dfcd f5bd
00000240: bdb8 723c cceb f13c 22a6 f5bd de24 a23e
00000250: 4502 aa3e 551d a9be 1066 803d bbcf 1ebe
00000260: 285e bf3d be6d 57be 6f5e de3e 3dbe 87be
00000270: f003 663e 40e0 303e 1c03 ba3d cf91 7ebc
00000280: d985 693e 4317 08be 1475 073e f55f 15be
00000290: efc4 c43e aad7 c93d ee4f 54be 4515 8a3e
000002a0: dc3a 9fbd 1e23 b9bd b525 babd 86e4 0f3e
000002b0: fe13 4c3e 0c14 f8bd 6130 39be 614e 723d
000002c0: 6026 c2bd b957 653d 4b82 0b3e b8a6 c0be
000002d0: 3be5 79bd 5eed d83e 9b2a 7f3e 9cea 63be
000002e0: 5e46 b53e 4299 303e 26cb aa3e ce5a e53d
000002f0: c11c 62bd 7288 273d 3266 023e 3226 6d3d
00000300: 26a7 953c ce66 cf3e 5590 863e 83a0 e6bd
00000310: b90d 9c3d 8f08 acbe db2d 1e3e b81c 243e
00000320: d63b 14be a30a 78bd bd95 0f3d b757 0a3e
00000330: e904 553c 7de7 8abd 9c4e 76bd 8471 17be
00000340: b944 14be bfa9 05bc 9293 4e3e a3f6 483e
00000350: 8d54 03be 7f19 0abe c27d 8ebd a5c2 ea3d
00000360: 4237 ea3d 6c4a 333e e55d 703d 8916 9ebd
00000370: cfa0 34be 76da 813e e5d8 d6bd 05f2 10be
00000380: ac4f 8dbd e5fe 263e 00d7 f6bc fecf c43d
00000390: 4808 44be e7c9 04be 481b 00be 678b 6b3e
000003a0: acd6 573e a419 a13d 3412 363e 0b73 443e
000003b0: ee78 a93e 56ee 42be 535c 6fbe a8da c9be
000003c0: 3fc8 b13d b258 4bbe 6534 143d aa64 e4bd
000003d0: c34d 403e e69d b5be ae4e f2bd c224 b23e
000003e0: 327f 233e 7ac1 8b3e 2f65 bebd c7de 8abe
000003f0: 88c3 05be b696 97bd 620d 9c3c 9b65 5cbe
0.30884185 0.308675 -0.049410522 0.40807843 0.028547948 -0.100313544 -0.14678833 0.13154015
0.4391263 -0.2835762 0.13235292 0.040367167 0.20190875 0.12669833 0.10739264 0.10582374
0.44019946 -0.1448237 0.1475499 0.20455974 -0.07761546 0.13364205 -0.026656441 0.20627426
0.07079958 0.15011801 0.06512544 -0.1461855 0.23650676 -0.52170086 0.31806087 -0.25623873
0.5018662 0.24253194 -0.01840947 0.24993223 -0.10767926 0.20759097 0.18169248 -0.0903681
0.34654424 -0.18612084 0.4988167 0.19517903 0.079972595 -0.05738034 0.34702855 0.26611146
0.28011703 -0.11171004 -0.29713625 -0.17720166 -0.3574446 0.17713563 0.091177955 0.18958406
-0.16143644 -0.01780734 0.08054279 -0.24182458 0.064564735 -0.19487526 0.34341645 -0.044623986
0.1416778 -0.27205542 0.4814573 -0.12682867 -0.20105967 -0.31726724 0.25081038 0.0039507872
0.13702263 -0.2647636 -0.3154762 0.0029650272 -0.09965924 -0.14252108 0.23610733 0.5122616
0.06713823 -0.21379411 0.21721196 -0.21000618 0.07598722 -0.22481807 0.19669567 0.015529901
-0.15307635 0.25523424 0.10131096 0.17030524 0.069718264 0.3555091 -0.23917338 -0.13496429
0.38350612 0.003397077 -0.03507104 -0.2459701 -0.22716649 0.088438 0.09696063 -0.28989673
-0.08571585 -0.12684509 -0.2028915 -0.23846304 -0.22842072 -0.3287977 0.12469241 0.07694077
0.2124494 -0.36494246 -0.07617123 0.1461026 0.08055381 -0.24582218 -0.06487644 -0.016825119
-0.19438703 -0.15601338 0.09116044 -0.042604096 -0.045638233 -0.18878116 -0.17418334 -0.12782265
0.2665529 -0.0035182845 0.16022618 0.2492494 -0.36303365 0.32327756 -0.14465868 0.03841546
-0.09263618 -0.35014454 0.2952632 0.17499667 0.011167623 -0.16370131 0.11724672 -0.120021574
0.014814553 0.029531382 -0.11994578 0.31668752 0.33204857 -0.3303019 0.06269467 -0.1550893
0.09344131 -0.21037957 0.43431422 -0.26512328 0.2246244 0.17273045 0.09082624 -0.015537693
0.22804965 -0.13290124 0.13228256 -0.14587386 0.38431498 0.09855588 -0.20733616 0.26969352
-0.077748984 -0.09039901 -0.09089223 0.14052019 0.19929501 -0.12113199 -0.18084861 0.05915678
-0.09479976 0.055991862 0.13623922 -0.37627196 -0.061009627 0.42368597 0.24918596 -0.22257465
0.35405248 0.17245963 0.33358115 0.1119896 -0.055203203 0.04090161 0.12734297 0.057897754
0.01826818 0.4050812 0.26281992 -0.11261084 0.07619805 -0.3360028 0.1544718 0.1602658
-0.1447595 -0.06055702 0.03505491 0.13510023 0.013001659 -0.06782434 -0.06013356 -0.14789397
-0.1447934 -0.008158146 0.20173481 0.19625334 -0.12825222 -0.13486288 -0.0695758 0.11462907
0.11436321 0.17508858 0.058683295 -0.07719142 -0.17639469 0.25361985 -0.10490588 -0.14154823
-0.06899962 0.16308172 -0.030131817 0.09609984 -0.19143784 -0.12967645 -0.12510407 0.23002397
0.21077985 0.07866219 0.17780381 0.1918451 0.33100075 -0.1903623 -0.23375063 -0.39424634
0.08680772 -0.19858053 0.03618278 -0.11152013 0.18779664 -0.3547203 -0.11831413 0.3479367
0.1596649 0.27296048 -0.09296643 -0.2712309 -0.1306287 -0.07401793 0.01904935 -0.21523134

h_11.bias f4 [32]
00000000: 9f10 763e 9eed 933e 8b7d b2be f3d8 85be
00000010: 0284 033f cfb2 453c 4d60 393e b0ea c53e
00000020: 21fa 3a3f 6430 0e3f d005 063f bacb c13d
00000030: 4c0e 8dbe 7de4 a83e 4b94 f03e 3442 d7be
00000040: f910 8bbe de3d 1c3f 77e0 ef3e 0d39 b53e
00000050: 5e6d 753e b2a6 84bf 3e7f 98be 922a 17be
00000060: 8672 2dbd 93a4 1b3f baa6 6abd 8091 00bd
00000070: 27e7 3b3f d639 f33e 297a ab3e b6f2 2d3d
0.24029778 0.28892225 -0.34861407 -0.26142082 0.513733 0.012066557 0.18103142 0.38655615
0.73037916 0.5554259 0.5235262 0.09462686 -0.2754997 0.32986823 0.4698814 -0.42042696
-0.27161387 0.610319 0.4685094 0.3539509 0.23967502 -1.0363371 -0.29784578 -0.14762333
-0.042345546 0.60797995 -0.05728791 -0.03138876 0.73399585 0.47505063 0.33491638 0.042467795

h_12.weight f4 [32, 6]
00000000: a427 68be 779b 803e 5b08 16bf 0b09 ecbd
00000010: 0ef7 b9bd 8632 783d 8673 6ebd 5f52 093e
00000020: 27c3 093f 54c7 753f a9ca d63b b070 0bbf
00000030: 1531 ddbe 3c7d 173e eb21 003f 756b 153d
00000040: b402 94be e081 b13e dffc 12bf bea3 0e3f
00000050: b00a 92be 39e9 a33e 9e7f 213e 95f1 173e
00000060: 08a1 42be 5052 743e 4b94 8abe b5ba ba3e
00000070: 8834 443f 117f 10be c1f4 33bf 00a8 263e
00000080: 3b14 473e c40d a3bd 0c5d 7e3e 3e1b 0cbf
00000090: 557c 00bf 107e 403d 869c 5cbc c901 943e
000000a0: 884c b5bc 3d1a dd3e c37b 9f3d 8d5e 23bf
000000b0: 5988 9d3c e742 c63c 1095 9d3e b8ff e3be
000000c0: 7007 4a3e f4ed 8dbe e4d4 0dbf db5d 9fbe
000000d0: e9ce ff3e ac0e 133f 4e2d bb3e d965 753e
000000e0: 0ce8 9d3e 50d2 5fbd 4d05 66be 2be1 503e
000000f0: 2973 c5be ff95 9ebe 79f8 a4bd a487 b23d
00000100: ebd1 d03e 8530 1ebe 8edc d4be 8603 553e
00000110: d6f3 553d 4dc3 e4be 4a68 a33e 0442 a03c
00000120: 9000 bf3e 8655 cb3e 7414 fa3d b4df 0f3e
00000130: dc89 c03d ce80 d13b bb57 883d e160 fcbe
00000140: e34c e4bd 724f 223f aace 213d 1d32 8cbe
00000150: 9193 233c fff0 f4bd 8b0f 663e 23f4 903e
00000160: fcc4 2b3f 0741 743e a33f 11bf ffed 2cbf
00000170: 3fd2 93be d9fa 85be 4970 c43e 7434 e6be
00000180: 41aa ac3e d8a8 adbe 5c55 95be 8242 c5be
00000190: 609c db3e b0b9 0ebf 0836 293f 28ed a33e
000001a0: f619 14bf 1bf9 033f 8b56 1f3e 7e64 e33e
000001b0: a6ec 123f 948e 59be 6699 82bc 16d7 a83e
000001c0: 42f0 b33e e200 763e 1776 a93d f298 493d
000001d0: 200b 63bd abfd c93e 3424 e73e 61e2 c53d
000001e0: 1592 08bf 5ef0 41bd e1e7 08bf 0c97 123f
000001f0: 459c 5fbe b0d2 dc3d 1463 43be a8db bb3e
00000200: 818c bd3e d521 e0bd 24ae 3f3f eff1 e93e
00000210: a40f dd3e ad80 eebe d8ed 97be 295a 653e
00000220: c349 103e dc29 d33e efae 843c 8994 e7bd
00000230: 3820 60bd 5bc3 053e df21 9c3e 10fa 433f
00000240: fcb4 8e3e 6526 c63e 0900 b33c e8cd b3be
00000250: aba2 92be f5d6 81be 13e9 7abe 02ee 23bf
00000260: a0b2 7ebe c43b 9dbe bbc5 06bf f697 3abf
00000270: d441 13bf 8a9e 1bbd 902c 853e d78d 2dbe
00000280: 0190 7b3c 33c3 a53e 0e76 f3be 20a7 f43c
00000290: 72ab 423e cd9c 07bf 8f4d b1bc 2e49 c63e
000002a0: e0cb e8bc c374 a33d 086a 6cbf 27f9 aa3d
000002b0: 8c51 4e3e 7b96 22bd 226e 223e 43a0 b53e
000002c0: 188c 9fbe 397f 483c ffde 50be c559 a5be
000002d0: 47cf 13be 9fb4 05bf e633 583d c066 8ebd
000002e0: 1524 b83b 0674 ab3e 5bea c7be 7ba4 c8be
000002f0: b264 4dbe c56e 813d 68a4 41bd cca9 313c
-0.22671372 0.2511861 -0.586065 -0.11525162 -0.09080325 0.060595058 -0.05821564 0.13410328
0.53813404 0.96007276 0.0065549207 -0.5446882 -0.4320151 0.14793867 0.50051755 0.036479432
-0.28908312 0.346694 -0.574171 0.557186 -0.2852378 0.32013872 0.15771338 0.1483825
-0.19006741 0.23859525 -0.27066264 0.3647057 0.76642656 -0.14110972 -0.7029534 0.16275024
0.19441311 -0.0796161 0.24840182 -0.5472907 -0.50189716 0.046995223 -0.0134650525 0.28907612
-0.02213122 0.4318408 0.077872775 -0.6381615 0.019230055 0.024201823 0.30777788 -0.44531035
0.197294 -0.27720606 -0.5540297 -0.31126294 0.49962547 0.5744426 0.36558002 0.23964633
0.308411 -0.05464393 -0.2246296 0.20398395 -0.38564423 -0.30973813 -0.08055205 0.08717278
0.40785155 -0.15448196 -0.4157452 0.20802125 0.052234493 -0.44680253 0.31915504 0.019562729
0.37305117 0.39713687 0.122109324 0.1405018 0.094012946 0.0063935285 0.06657358 -0.49292663
-0.111474775 0.63402474 0.03950373 -0.27381983 0.009983913 -0.11960029 0.22466867 0.28311262
0.6709745 0.23852931 -0.56737727 -0.67550653 -0.28871343 -0.26167944 0.38366917 -0.44961894
0.33723643 -0.3391788 -0.29166687 -0.38527304 0.42892742 -0.55752087 0.6609807 0.32016873
-0.57852113 0.5155198 0.15560357 0.44412607 0.57392347 -0.21245795 -0.015942287 0.32976598
0.3514424 0.24023774 0.08274477 0.049218126 -0.05543053 0.39451346 0.45144808 0.09662319
-0.53347903 -0.047348373 -0.5347882 0.5726173 -0.21836956 0.10782373 -0.19080764 0.36691022
0.37021258 -0.10943953 0.7487509 0.45692393 0.43175995 -0.46582547 -0.29673648 0.22397675
0.14090638 0.41242874 0.016196696 -0.11307628 -0.054718226 0.13062803 0.30494592 0.7655344
0.27872455 0.38701168 0.021850603 -0.35118032 -0.2863973 -0.25359312 -0.24502973 -0.64035046
-0.24872828 -0.3070966 -0.5264546 -0.72888124 -0.5752232 -0.03799299 0.2601056 -0.16948639
0.015354157 0.32375488 -0.47551006 0.029864848 0.19010714 -0.52973634 -0.021643428 0.38727707
-0.028417528 0.07981255 -0.9234929 0.08348303 0.20148295 -0.03969429 0.15862325 0.35473832
-0.3116157 0.0122373635 -0.20397566 -0.3229505 -0.14434539 -0.5222873 0.05278387 -0.06953192
0.0056195357 0.33486956 -0.39045987 -0.3918799 -0.20057943 0.06319956 -0.04727593 0.010843705

h_12.bias f4 [32]
00000000: c674 103f 7d83 143e f627 a43e ad0f d8be
00000010: 32f1 bdbe 831e 8e3e fb85 973e 8b64 f63c
00000020: d7ce 243e c0fd a7be c986 19be 5914 f93e
00000030: 1535 cebd 9a5d a3be e52a 90be ee82 60be
00000040: 8db2 0e3f 24fe afbe 3791 a8be 2b77 9a3e
00000050: 8a29 14bf 4f8f 083e eaca 39be 2557 13bd
00000060: f57d 203e 137a 053f a802 85be d00e bdbe
00000070: 4274 e9be 9a91 57be 003b 34bf 9235 76bf
0.5642818 0.14503284 0.32061738 -0.4219946 -0.3709808 0.27757654 0.29594406 0.03007724
0.16094528 -0.32810783 -0.14992823 0.48648337 -0.10068718 -0.3190735 -0.28157726 -0.21924946
0.55741197 -0.3437358 -0.3292329 0.30169043 -0.57875884 0.13335918 -0.18143812 -0.03597178
0.15673049 0.52139395 -0.2597859 -0.36925364 -0.4559651 -0.21051636 -0.70402527 -0.9617549

h_21.weight f4 [32, 32]
00000000: 94e4 613e 87a2 12be 599e 9aba 30b5 813e
00000010: 88b4 e1bc 1300 1ebe 1317 563d 114a 7c3d
00000020: 1816 d23d 2648 8abd f2c8 e23d 71a1 77bc
00000030: ed6a 8e3e 0c2f 813d 46f4 983d 7ec2 6c3e
00000040: 9606 f4bb f936 7dbc 5766 db3c 6b25 6a3e
00000050: 9093 1abe 6454 85be 239e c5bd 35d3 c33d
00000060: ac8a dc3d 5551 783d b8b2 f73d ac9b a0bd
00000070: 5b55 0b3e 6a8d c03d 7057 333d 9485 fc3d
00000080: ffe3 213e e7ad 503e ef5b 89bc e77b 333e
00000090: 4824 db3d 3ea5 923d 5a57 d2bd ca71 993d
000000a0: 1dd8 bc3e 4ad3 d5bd bf63 32bd 5436 623c
000000b0: 4e46 e2bb 610d 6c3e d07a cbbd ac3e dc3d
000000c0: 95ef 9dbd 4e18 cc3d 71c0 223e 8c16 083e
000000d0: 6f9f 233e 7aec 3cbd 1d47 093e 2d2c 4a3d
000000e0: 54ca 163e 7798 633e 7a7b 65be 51b4 333e
000000f0: d521 793e 3459 e9be fb99 7bbd 3125 2abd
00000100: d22d 693e 9bb2 adbd c2a9 03bd 8d00 6e3e
00000110: d039 02be 82ac 8b3d 5787 3fbd 8234 ab3d
00000120: 6f6f 6b3e 3c61 6cbd e55f 3e3e 9b37 163e
00000130: fb26 9b3d f235 dabd 17f8 663c 1ea9 f53d
00000140: 9fe1 22be 08e2 1c3e 9e97 a63d 0371 763e
00000150: 2563 dfbc 804b 03be 7506 ae3d 25a8 03be
00000160: 2c34 87be d7c3 e0bd a958 463e 2778 bcbe
00000170: 4269 d5bd 4cbd 323e 4f68 c23d d856 f33d
00000180: 7c95 8ebd 3194 a63c c08d 123e f425 153e
00000190: f431 fe3d 7cac 6a3d 1843 833d 1046 3b3e
000001a0: 11b9 e0bd 80c6 8d3c 0de4 f13d 5d08 06be
000001b0: 8b7e 1cbe 3b29 d13d f534 bb3d 32ee 303e
000001c0: 92bb 1fbe d21e b63d 4241 493e f135 b4bd
000001d0: 7a16 0a3d ba43 9abe a92f d2bd 41c3 283d
000001e0: 6872 f4bd 4434 a4bd 55f6 c83c f8c7 f2bd
000001f0: 0ed4 75be b99a 4f3e 11d6 183e 2c3f 08be
00000200: 056d acbe 0eec 913d 2164 923d 4d02 903e
00000210: dc09 abbe c291 53be bcb5 8cbe 50f1 d8be
00000220: 7ace ecbe 3006 5cbe 5239 7dbe 2c5a 403e
00000230: b169 22be 61f7 67be 1690 a7be a7eb dc3e
00000240: 5e8a 413e 2ccf 33be 2dd6 bcbd 5d59 14be
00000250: 70aa b2be dd7a d43e d861 a3bd 23d7 e23e
00000260: c498 ec3d 0917 bbbe e0be 8c3e 21e3 7dbe
00000270: 6404 abbe 8752 bfbd 1638 bebe d31a 503e
00000280: 5ce1 d33c fc18 293e 00bc 4abd 5f7e 7a3d
00000290: 7872 023d 1881 07be 9850 683d 557c 673e
000002a0: f823 6a3e 9daa 8e3c b6c5 8cbd bf80 b33d
000002b0: 3388 6a3d b93d aa3d f0b9 4d3e da75 5b3e
000002c0: a47c f43c 3dba fe3d 0444 c939 aa04 823e
000002d0: d12d 423e 2e2a e13e dd1c 193e 3fb3 9bbd
000002e0: d35d b13c 7713 0f3d 4828 183e 235e b1bd
000002f0: 6f87 1b3e 0000 2fbd 0298 3e3e 0047 da3d
00000300: 3a18 bfbe e437 83bb d283 1fbe 0802 bc3e
00000310: 39c4 f0be 50fc 3b3e bd75 87be 0d94 55bd
00000320: c8bb 4ebe b694 cbbd 6021 d9be 7783 d8bd
00000330: 6015 573d 7e90 2cbd 7ae2 27be 3acc a23e
00000340: b897 6a3e 20de 5fbd fc12 35be 906e 49be
00000350: ac7e 8bbe ed19 063e c647 1a3e 768a 813e
00000360: e6ec 6e3e 2ec7 c7be d552 bf3e 7376 37be
00000370: ed50 8dbe c491 a2be 4528 63bd da57 83be
00000380: a042 13be 8f5f 673e d9a9 333e 6ab2 b53d
00000390: 7928 27be a0ca 82be d67c c2bd 745d 4cbd
000003a0: a509 d2bd 1348 8bbd 138e 8bbd a98c d2bd
000003b0: ac58 8f3d af84 62bd 2358 513d d64d 573e
000003c0: 4388 e0bc b120 d9bc b701 24bd 1693 843d
000003d0: 6497 e13d 25f1 bc3e 8efe 133e 0079 08bd
000003e0: 8fcc c3be f823 b2bd 99f6 0e3e 01a2 48be
000003f0: fc19 08be 1cfa b13b 7070 2a3e 44e6 003e
0.22059852 -0.14319812 -0.0011796459 0.25333548 -0.027551904 -0.15429716 0.0522681 0.061594073
0.1025812 -0.067520425 0.110734835 -0.015114174 0.27815953 0.063078016 0.074684665 0.23121068
-0.007447074 -0.015455001 0.026782198 0.22865836 -0.15095353 -0.26040947 -0.09649303 0.09561769
0.10768637 0.06062444 0.12094635 -0.07842192 0.1360678 0.094019726 0.04378456 0.123301655
0.1580963 0.20378838 -0.01676747 0.17527734 0.107002795 0.07160424 -0.10270567 0.07492407
0.3688363 -0.10440691 -0.043552157 0.013806898 -0.0069053536 0.23051979 -0.09935534 0.10754141
-0.07711712 0.09965573 0.15893723 0.13289851 0.15978788 -0.04612396 0.13406034 0.049358536
0.1472562 0.2222613 -0.22410384 0.17549254 0.24329312 -0.4557587 -0.061426144 -0.041539375
0.22771385 -0.08481332 -0.032144316 0.23242398 -0.12717366 0.06820013 -0.04675993 0.083596244
0.22991727 -0.057709917 0.18591268 0.1466965 0.07575794 -0.106548205 0.014097235 0.11995147
-0.1590638 0.15320599 0.081343874 0.24066548 -0.027268955 -0.1282177 0.08497325 -0.12857111
-0.2640699 -0.109748535 0.19369759 -0.3681042 -0.10420467 0.17455024 0.094925515 0.118817985
-0.06962106 0.020334335 0.14311886 0.14565259 0.124118716 0.0572934 0.064092815 0.18288445
-0.109727986 0.017306566 0.11811075 -0.13089128 -0.15282647 0.10212942 0.0914096 0.17278364
-0.15598896 0.08892597 0.196538 -0.08799351 0.03371284 -0.30129796 -0.10262997 0.041201834
-0.11935884 -0.080177814 0.024531523 -0.11854547 -0.24006674 0.20273866 0.1492541 -0.13305348
-0.33676925 0.07125102 0.07148004 0.28126755 -0.3340596 -0.20661071 -0.27482402 -0.42371607
-0.4625128 -0.21486735 -0.24728897 0.18784398 -0.1586063 -0.22652961 -0.32727116 0.43148538
0.18900439 -0.17559499 -0.09220538 -0.14487214 -0.34895658 0.41499987 -0.079776466 0.4430476
0.11552575 -0.36541012 0.27489376 -0.24793674 -0.33401787 -0.09341913 -0.37152165 0.20322733
0.025864296 0.16513437 -0.049495697 0.061155673 0.031847447 -0.13232839 0.056717485 0.22606023
0.22865283 0.01741534 -0.06873648 0.08764791 0.057258796 0.08312554 0.20090461 0.21431676
0.02984459 0.12437866 0.00038388383 0.25394183 0.1896279 0.43977493 0.14952417 -0.07602548
0.021651184 0.034930672 0.14859116 -0.08660533 0.15188383 -0.04272461 0.18612674 0.106580734
-0.3732317 -0.0040044654 -0.15577629 0.367203 -0.47024706 0.18357968 -0.26457015 -0.052143145
-0.2018882 -0.09940474 -0.42408276 -0.1057195 0.05251062 -0.042129986 -0.16394988 0.31796438
0.22909439 -0.054655194 -0.17683023 -0.19671082 -0.2724508 0.13095827 0.15066442 0.2530095
0.23332557 -0.3901915 0.37367883 -0.17916279 -0.27600804 -0.31751835 -0.055458326 -0.25652963
-0.14380884 0.22595046 0.1754526 0.088719204 -0.16324033 -0.25545216 -0.09496467 -0.04989381
-0.10255746 -0.068008564 -0.06814208 -0.10280735 0.06999335 -0.05530232 0.051109444 0.21025786
-0.027408725 -0.026504846 -0.040040698 0.06473367 0.110152036 0.3690273 0.14452574 -0.03331852
-0.38242003 -0.08698267 0.13961257 -0.1959305 -0.13291162 0.0054314267 0.16644454 0.1258784

h_21.bias f4 [32]
00000000: 675e ba3c 676a 693e 48d9 2e3e 100f b23e
00000010: 99bf 04be ad46 823d b175 7abe d9f2 143e
00000020: 10c4 0e3e a227 0ebe 5367 883e bed0 483e
00000030: e578 6d3e d938 c43c 4e1c 453e f629 243e
00000040: 9153 2a3e 3590 c23d 0e8c 8b3e aa3f ae3e
00000050: 623b 043e 98f5 703e 468d e93d 004b 3a3e
00000060: 0a02 8a3d 0a09 423e 5ece 893d 5747 06bd
00000070: 20f8 953e a7f6 ac3e d8f4 b43d fcf6 ce3d
0.022750093 0.22794496 0.17075074 0.34777117 -0.12963714 0.063611366 -0.24458958 0.14545764
0.1394198 -0.13882306 0.2664133 0.19610879 0.23190649 0.023952888 0.19249079 0.16031632
0.1663344 0.095001616 0.2725529 0.34032947 0.12913278 0.23531187 0.11403899 0.18192673
0.0673867 0.1894876 0.067288145 -0.03278288 0.29290867 0.3378193 0.08835763 0.10105702

h_22.weight f4 [32, 32]
00000000: 02e7 90bd 2829 92be d343 7e3b 15a7 86bd
00000010: ce78 073e edf4 76bd 3e22 1e3e 1b82 af3e
00000020: 9922 4b3d 57d1 b03d a976 923e 3da7 ad3c
00000030: 7874 b63b 655d 083f 54d9 7f3e f8db d03e
00000040: e19c 093f e792 0abe 60db e03e 9e69 18bc
00000050: b637 a5bc b61d 843d b7e0 bc3d 3972 64bd
00000060: 9c24 4b3c 7423 dc3e ad7a 50be dac3 23be
00000070: de70 88be c237 e83d 66b2 863e 72c1 843e
00000080: 4b02 fa3d eb37 4dbe 613c 0bbe b60a b63d
00000090: 40c0 963d c4d0 193d a1e1 053e 9641 a03e
000000a0: b8ca 853e 15d6 77bd 57c1 54be 1e2c 033e
000000b0: a197 c23c f2f1 7ebe 7f9a 72bd 2983 2dbe
000000c0: 0591 2f3e ad5e 48bf e0cc 2f3e ee46 263e
000000d0: 91f3 c53d 4133 ec3d 55fe ac3e 921e b43e
000000e0: 29dc 98bd c9a9 5c3d b171 683e 6d8f c63e
000000f0: 3009 713e ee8b bbbd aef1 a83e e33a a63e
00000100: 31e7 99bd a95d 083f 0f03 5dbe 3298 763e
00000110: 51fa a4be f6be f1be d15b 9f3d dfc7 ad3d
00000120: f61f 873e f3f5 c83d 448c ffba 950a 43be
00000130: 7aba 0fbe ae6b 803e 16b7 343e 57ef 68be
00000140: d15a 57bc 7d06 84be 3f00 01be 9934 43bd
00000150: c29d e53d 30b8 9c3d 2c3e 1d3e ff19 0c3e
00000160: 0d2e 523c eedd 803e 4220 33be 0925 95be
00000170: f0e5 543e 6bad 0abe 11b1 113e e770 a3be
00000180: 089f 3ebe e3a6 0c3e a4fa 24bd 26ad e4bd
00000190: c2f5 98bd 2330 17be 169c e33d 858a 80bd
000001a0: 0f18 01be 9249 09be 7965 9d3d 3359 50bd
000001b0: 9e23 98bc f4a2 64bd 2fab e5bd ffe5 0b3c
000001c0: c488 f73d 211b 04be 3c96 92bc 7cf2 24be
000001d0: 6b8c dfbd 9952 033e 43b3 c5bc 45f0 123e
000001e0: 04b9 fdbc 2090 eebd 96be 07be bc12 053e
000001f0: 6b49 1bbe f0fe bd3d 004f 8a3c 9977 d63c
00000200: 7b0b 9e3d 9731 733e b873 a83d 2e51 85be
00000210: 8421 cf3c 7da7 94be 0ca4 cc3c 4236 39bd
00000220: a225 083e ea10 ddbd e121 2e3e b4cc ed3d
00000230: 96fc c3bb a392 e73e 7742 723e 2a11 16be
00000240: b2cd 193e adb8 393f cad4 f33d 4954 5d3d
00000250: 46dc e7be 178b 803e 37d2 843e 4bed 073e
00000260: 4d66 003e 3767 063e 9056 a1bd 74fe 06be
00000270: 3999 5e3e 6ea0 063e 1077 243e 7253 633d
00000280: a5e8 69bd 11c8 dfbe d8dc 01be 9aa7 03bd
00000290: 333f e03d cc77 c5bd 8d83 8a3d f62a ed3e
000002a0: 156b 54be b350 033e ac10 d13d 5373 fa3c
000002b0: 45e1 223e b2fa d03e d284 413d d2db ab3e
000002c0: e2a7 22bf e19d 92be 4881 683e 1b42 f13c
000002d0: 273d 6abd 1133 72bd 8962 883b 33c9 4cbd
000002e0: 1689 f7bd 7f29 ddbe 1cf6 aa3d a428 1dbf
000002f0: 0709 223f 1fc2 57bd f1da 02bd 987c 02bf
00000300: e907 ba3e fd11 ad3e 74ed 8f3e b790 c73e
00000310: cdbb 2abf ce50 bebe 6375 063e f457 67be
00000320: d54b 143e 8df1 afbc c889 243e c215 95bc
00000330: ec36 a83d 57d1 af3e 24d7 4bbe 23eb 17bd
00000340: 60b9 84be a9f8 823e f735 6ebf db58 44bd
00000350: e81e 533e 650e 00be 81bc dbbd c108 28bd
00000360: 684f f83d d812 c43e a182 12be 4b4c 96be
00000370: 3b20 033f 5b6c 04bd fa4d 8c3e 625c 043e
00000380: 919c 073d 6ec6 e63a f762 80bd 33d9 cebe
00000390: d379 a23e c263 4d3c d12e 133e e0c4 48be
000003a0: 794b 823e 4a9a 183e bae5 bfbd 46ad 023c
000003b0: 2d98 19be e235 47be 3feb e2bd dca2 71bd
000003c0: 48ab fb3c f56e 043f 0a59 6abe 3a93 0e3e
000003d0: d9a3 5b3e e03e dcbd 9217 9d3e 0c93 db3d
000003e0: 1ac3 5e3c f288 0a3e fff5 c2bd 59b0 dfbe
000003f0: 455c 073e 2967 d9bd 4f8e 46be c706 c2bf
-0.07075311 -0.28547025 0.003879775 -0.06574837 0.13229677 -0.060292173 0.1544275 0.3427895
0.04959354 0.086336784 0.28606156 0.02119791 0.0055680834 0.5326751 0.24985248 0.40792823
0.53755003 -0.13532601 0.4391737 -0.009302525 -0.020168167 0.064509794 0.092225485 -0.055772994
0.012398865 0.429958 -0.20359297 -0.1599268 -0.2664861 0.1133876 0.26307982 0.25928837
0.122074686 -0.20040862 -0.13597251 0.08888762 0.073608875 0.03755261 0.13074352 0.31300038
0.26131225 -0.0605069 -0.20776878 0.12809798 0.023753943 -0.24896982 -0.05922937 -0.16944565
0.17145164 -0.78269464 0.17167997 0.16237995 0.09665597 0.115332134 0.3378779 0.35179573
-0.07463867 0.053872857 0.2269962 0.387813 0.23538661 -0.09157549 0.32996887 0.32466802
-0.075147994 0.53267914 -0.21583198 0.24081495 -0.32222226 -0.47216004 0.077811845 0.08485388
0.26391572 0.09812536 -0.0019496758 -0.19047005 -0.14035979 0.25082153 0.17647967 -0.22747551
-0.013144211 -0.257862 -0.1259775 -0.047657583 0.112117305 0.076523185 0.15355748 0.13681792
0.012828362 0.2516932 -0.17492774 -0.29129818 0.20790839 -0.13542716 0.14227702 -0.31922075
-0.18615353 0.13735537 -0.040278092 -0.11165838 -0.074687496 -0.14764456 0.111137554 -0.062764205
-0.12606834 -0.13406971 0.0768537 -0.050866317 -0.018571671 -0.055819467 -0.11214291 0.008538722
0.12086633 -0.12900974 -0.017893903 -0.16108125 -0.109154545 0.12824477 -0.02413333 0.14349468
-0.030972011 -0.116485834 -0.13256297 0.12995428 -0.15164725 0.09277141 0.016883373 0.026180075
0.077170335 0.23749386 0.082251966 -0.26038498 0.025284536 -0.29034033 0.024980567 -0.04521776
0.13295606 -0.10794242 0.17005111 0.1161131 -0.0059810383 0.45229062 0.23658167 -0.14654985
0.15019873 0.7254742 0.11905821 0.05403546 -0.45285243 0.25106117 0.2594163 0.13274114
0.12539025 0.13125311 -0.078778386 -0.13183004 0.21738137 0.13147137 0.16061044 0.0554995
-0.057106633 -0.43707326 -0.12681901 -0.03214226 0.10949554 -0.0964199 0.067633726 0.4632184
-0.20743974 0.12823753 0.10208258 0.030572569 0.15906246 0.40816265 0.047245808 0.33566147
-0.6353742 -0.28636077 0.22705567 0.029450467 -0.057187226 -0.059130732 0.004162137 -0.049996566
-0.12086694 -0.43195722 0.08347723 -0.6139014 0.63295025 -0.052675363 -0.03194708 -0.50971365
0.3633416 0.33802786 0.2811085 0.38977596 -0.6669281 -0.37171024 0.13130717 -0.22592145
0.14482053 -0.021477485 0.16068184 -0.018198851 0.082136005 0.343394 -0.19906288 -0.03708948
-0.2592268 0.25580338 -0.93051094 -0.0479363 0.20617259 -0.12505491 -0.10729314 -0.041023973
0.121245205 0.38295627 -0.14307643 -0.29355082 0.51221055 -0.0323299 0.2740324 0.12925866
0.033108298 0.0017606744 -0.06268876 -0.40400085 0.3173357 0.012535991 0.14373328 -0.19606352
0.25448206 0.14902607 -0.09369989 0.007975882 -0.14999457 -0.19454148 -0.11080026 -0.058993205
0.030721322 0.51731807 -0.22885528 0.1392335 0.21449222 -0.1075418 0.30682045 0.10721406
0.0135963205 0.13528803 -0.09519576 -0.4368923 0.13218792 -0.10615379 -0.19390224 -1.5158318

h_22.bias f4 [32]
00000000: 0b53 143d 797a 923d 6f29 723e 9713 e1bd
00000010: 32f6 a03d 0f47 84bd 8f84 343e ca37 10bd
00000020: 3030 853d ccb8 46bd c0df 2a3e 2a26 21bd
00000030: 98e2 aebe 1c3a 133e 32fc 233c 975d 89bd
00000040: 0490 de3e 8be1 d63e 62a2 ad3e b38e 7d3c
00000050: 006d 803d 58de c3bd 770a 76bd 513b 3c3d
00000060: d65e 9e3d 793e 15be e611 abbd c436 ca3d
00000070: b02b 5bbe ceb5 f83d 4803 193e eba4 b8bd
0.03621201 0.07152266 0.23648618 -0.109900646 0.07859458 -0.06458866 0.17628692 -0.035209455
0.06503332 -0.04851608 0.16686916 -0.039343037 -0.34157252 0.14377636 0.0100088585 -0.06707304
0.4346925 0.4196895 0.3391295 0.015475917 0.0627079 -0.09563893 -0.060068574 0.045955006
0.07732932 -0.14574613 -0.08353023 0.09873727 -0.21403384 0.121440515 0.14942658 -0.090158306

h_32.weight f4 [12, 64]
00000000: 8523 ed3d a80c 823e 5d19 353e f606 20bd
00000010: 6ccc b93c 97b9 933e 7819 4e3b f24e 5e3e
00000020: a612 043e 7036 86bd b472 1abe f2c0 ce3d
00000030: 3dda a3bd 91d1 c1bd 4f30 90be c8aa f83d
00000040: 26b2 c6bd 392a 26bc f236 10be 8a08 453d
00000050: 7246 10be 89bd 31be 4a5d 6b3c 5f14 353e
00000060: cd47 f8bc c0db 0e3e 9176 82bd 9418 11be
00000070: 5b8b 00bd 8969 16be c885 da3d 0bdb 3c3d
00000080: f2a8 d13b ffa6 913d 2643 04bc 8418 923d
00000090: dc4e 54be ef10 0abf 412c 00bf 2c26 c8bc
000000a0: 7bfb b3bd f8ce e3bd ff1e 033e 88cd e73e
000000b0: 4326 a83e 8120 6ebd 9139 933e 64d0 1f3f
000000c0: 4987 9f3e e961 8cbf 7c90 16bf 3f46 7dbe
000000d0: 42fe 57be 2ce7 f6bd 80f4 9a3b 35fd 13be
000000e0: 17d9 dc3d ef56 233f 1488 e3bd 22b5 a2be
000000f0: de37 5a3d d178 7cbb 805e 87bd f403 f63c
00000100: 8b40 8d3d 8568 bfbe 3fcb 1ebe 06a8 603c
00000110: 0572 7a3e ab70 c7bd b2ca 8b3e 3db1 5e3c
00000120: d03d 90be 9db9 993e 4674 04be 2e9c bbbd
00000130: ed56 2a3e 4d00 89bc bd07 c23d 60c5 22be
00000140: e517 69be 6ef7 a03d da4a 94be 56ed aebd
00000150: e54a 09bc c1d2 89be 77cb b4be 09de 02bc
00000160: dd4d b13d 76d0 fc3b ed69 013d 1a01 7c3d
00000170: bb0e 0ebd ef65 febd 14b4 713d d2a5 393e
00000180: 2ca7 3ebc 624a 173e 5695 85be 7ece c7bb
00000190: 03ed 26be f7d1 fdbd 1d4a 113e ca5f b63e
000001a0: d794 153e c821 c6bd c24a 4fbb 9586 b3be
000001b0: c2f4 a03e 4272 38be ea99 213d dd5c abbe
000001c0: 6460 febe d884 a13f 7825 273f 30ff b7bd
000001d0: 17f0 ab3d d4ce 9ebd fc65 313d f654 0b3e
000001e0: 374b a43d d3b8 c0be 93fd d7bc fe80 4e3e
000001f0: ba48 283d 4f14 353a 6ba8 fdbc 6df2 bcbd
00000200: 13e9 e8bc b110 f03c d7cc 64be 5ac2 5fbe
00000210: 7e4c a13e d725 fa3d 7ac3 d63e 9ead c3be
00000220: 40eb 80bd 3aa6 f03e c3bb 20be 567e 1cbe
00000230: 95ed 18be 144a 86bd c505 d2bd d62f 753c
00000240: 58a1 593e 3e39 953d 2234 233e fc9e 99bc
00000250: 0d71 08be 80f5 45ba 59c4 a9bd d749 473d
00000260: e93e c53d 7f79 02be 35cd 45be 4cd3 2b3e
00000270: 46da 8e3d 098f 1e3e 19f2 aabd 5837 373e
00000280: 3624 973c 6719 98bd 52af 6bbe 61b7 2a3d
00000290: 0380 793e 217d 6b3d f8fa 3bbe 389a 19bf
000002a0: da5e 9fbd bc94 7a3d f6ef 16bd 1a6c 1f3f
000002b0: d189 bdbe 1874 403d cb34 24be ea89 6fbf
000002c0: 7b3a 763f 3004 46bf 94c2 07bf 8e06 d5bc
000002d0: 6aa4 353c 40d9 9d3d b0c2 a9bd 3177 edbd
000002e0: 513a d43d 8637 483e 01e4 fdbd a6fd 5ebe
000002f0: c014 fa3d 3f51 a53d 29c3 f0bd 2abb 0d3e
00000300: b03d 263e c8d6 cfbc ce66 153d a2b8 a0ba
00000310: 5c68 003f e254 f93d 16d0 e9be 5b54 14be
00000320: 99fa 603d b1c0 de3d 7de9 41be bbb9 69be
00000330: b739 d2bd 7641 afbb 369e 913d 2728 103c
00000340: 1725 73bc 24fe 16be b651 ce3d abf4 703d
00000350: e5ea e5bc c8ce 5fbd 6eb6 cbbd 1dfd e5bd
00000360: 3cdb f8bd 3c10 acbd e7ab b13d 67e7 82bd
00000370: 4fa6 4d3d 88ec 76bc f1c1 de3c f380 01be
00000380: 134b a4bc db77 173e 7d60 133d 7c31 d63c
00000390: 706b 563e 59c9 4fbd 75f0 363d 41b7 12bd
000003a0: e2ea 11be ca70 823d 9501 bf3c 107a 85bd
000003b0: a004 273d dbd7 0bbe 455d 8fbe 123d 663d
000003c0: fe4b 523d e903 0ebe 6d11 0f3c b758 fdbd
000003d0: 4a23 18be a8b0 b03d ce21 f9bd a8b6 48bd
000003e0: 5487 c53d 1a12 b1bd aa67 cb3c fe54 4cbe
000003f0: 8a93 da3d f8ef 82bd 7c34 1fbd ac8e 46bd
0.115790404 0.2540028 0.17685457 -0.03906914 0.022680484 0.2885253 0.0031448286 0.21709803
0.12897739 -0.06553352 -0.15082818 0.10095395 -0.0800061 -0.094638 -0.28161857 0.12141949
-0.09701948 -0.010141903 -0.1408346 0.048103847 -0.14089373 -0.17357458 0.014365504 0.17683552
-0.030307675 0.13951015 -0.06370271 -0.14169532 -0.0313829 -0.14688696 0.10670048 0.046107333
0.0063983137 0.0711193 -0.00807265 0.07133582 -0.20733207 -0.5393209 -0.50067526 -0.024432264
-0.087882005 -0.111234605 0.12804793 0.45273995 0.3284169 -0.058136467 0.28754857 0.62427354
0.31157902 -1.096738 -0.58814216 -0.24733828 -0.21093085 -0.12055811 0.0047288537 -0.1445206
0.10783594 0.63804525 -0.11109939 -0.31778818 0.053275935 -0.003852416 -0.06609821 0.030031182
0.06897076 -0.3738443 -0.1550722 0.013711935 0.24457557 -0.097382866 0.27303082 0.013592062
-0.2817216 0.30024424 -0.1293498 -0.09160648 0.16634722 -0.016723776 0.09474132 -0.15895605
-0.22763021 0.078596935 -0.28963357 -0.08541362 -0.008379673 -0.26918605 -0.3531148 -0.007987508
0.08657429 0.00771528 0.03159516 0.061524488 -0.034682017 -0.12421786 0.059009627 0.18129662
-0.011636537 0.14774469 -0.26090497 -0.006097614 -0.1630135 -0.12393563 0.14188428 0.35619956
0.14607559 -0.09674412 -0.0031630252 -0.35063615 0.31436735 -0.18012336 0.039453425 -0.33469287
-0.49682915 1.2618666 0.6529155 -0.0898422 0.08395403 -0.07754293 0.04331015 0.13606629
0.080221586 -0.3764101 -0.02636603 0.20166394 0.041084982 0.0006907628 -0.030964097 -0.092259265
-0.028431451 0.029304834 -0.22343765 -0.21851483 0.3150367 0.122142486 0.41946012 -0.38218397
-0.062948704 0.4700182 -0.15696625 -0.15282568 -0.1493438 -0.06557098 -0.10255007 0.014965018
0.21252954 0.07286309 0.15937856 -0.018752567 -0.13324375 -0.0007551536 -0.082894035 0.048654404
0.0963114 -0.1274166 -0.19316562 0.16779822 0.06975226 0.15484251 -0.08346958 0.17892206
0.018449884 -0.0742672 -0.23016098 0.04167879 0.24365239 0.05749238 -0.18357456 -0.60000944
-0.077817634 0.061177 -0.03684994 0.62274325 -0.37019208 0.046985716 -0.16035764 -0.93569815
0.96182984 -0.7735014 -0.5303128 -0.026004102 0.011086563 0.07707453 -0.08289087 -0.115949996
0.103626855 0.1955243 -0.12397004 -0.21776447 0.12210989 0.08072137 -0.11755974 0.13840929
0.1623447 -0.02537097 0.036474995 -0.0012262056 0.5015924 0.12174393 -0.4566657 -0.14485304
0.05492649 0.10876597 -0.18936725 -0.22824757 -0.102649145 -0.0053483797 0.071102545 0.008798636
-0.014840386 -0.14745384 0.10074179 0.058827084 -0.028066108 -0.05464056 -0.09946905 -0.11229918
-0.12151191 -0.08401534 0.08675366 -0.06391793 0.050207432 -0.015071042 0.027192088 -0.12646846
-0.02005533 0.14791815 0.03598069 0.026146643 0.20939422 -0.05072913 0.04466291 -0.035819296
-0.14249757 0.06369169 0.023316184 -0.06517422 0.040775895 -0.13656561 -0.28000847 0.056210585
0.051342003 -0.13868679 0.008732182 -0.12370437 -0.14857212 0.086274445 -0.12164651 -0.04900232
0.096449524 -0.08646031 0.024829704 -0.19954297 0.10672672 -0.06393427 -0.038868412 -0.048475906

h_32.bias f4 [12]
00000000: ddbc 82bd d7b3 04be 0810 5bbe 086d 06be
00000010: a8cc 44be fcc7 1dbe 20d3 1a3e e001 6b3d
00000020: 3eff 9d3b 6dac 5a3c 086e 0c3b 9c0d 7fbc
-0.06383679 -0.12959228 -0.21392834 -0.1312753 -0.19218695 -0.15408319 0.151196 0.057374835
0.004821687 0.013346774 0.0021427888 -0.01556721

model.0.weight f4 [64, 18]
00000000: 4518 a7b9 7530 f6ba 7b23 333a bb9e 173a
00000010: e114 deb9 4fab 7339 8f5c e439 0952 93ba
00000020: c33e 96ba b110 dc39 7060 89ba 77d0 e539
00000030: 2d57 a8be 5f5a dd3d 87bc ce3d 5276 f8bb
00000040: c9c5 43be da2b 053f 7b32 103b 0220 aabb
00000050: e410 f4b9 7cb7 be3a 3ff4 c4b9 953e b739
00000060: c701 1a3a 7610 5339 e708 b9ba 7bb8 813b
00000070: 3641 57bb aca6 4dba e426 513f 335a 4ebe
00000080: 547d a1be 1369 4b3e 86c5 b23e 387f 9a3e
00000090: 8a26 2ebb 21af e33a 889b 923b b07d 063b
000000a0: 6724 e83b 76de 98ba e31a 82bb 5f9e 63b9
000000b0: a754 bebb 6bdf 003c 10e1 3bbd 7e09 cb3c
000000c0: f4e2 053f a602 b4be 4f8b d33c d9d2 0cbe
000000d0: 057d 6d3e 7bf4 53be 9c90 1a3a 4c6b ca3a
000000e0: 2235 2d39 195c 603a 1ff4 343a fe95 0c3a
000000f0: 21ce bab8 eafd 04bb 4cc0 05ba 91c3 baba
00000100: dec4 03b8 544b 233a bf18 79be 423c 67bd
00000110: 9941 bbbd 66b6 163f d7ca 433e 1d33 b5be
00000120: 2faa e33b 5892 bf3a 2c2f 1f3c 7641 26bb
00000130: b3c6 b83a 7be1 003c e26e 113c 1927 7abb
00000140: 6a03 cf3a 5d15 a239 7745 3fbc 0c2d ed3b
00000150: 9792 99bd 1e8c 88be 84d6 b7be 1920 8f3d
00000160: e1b0 6fbd d378 0c3e 52af 883d a2a2 d23d
00000170: 7b09 683d 3ad6 003c f204 be3c d44c 9dba
00000180: ffed 073b 5a2d dcbb a1a8 5fbc cd72 8d3c
00000190: 4c64 9b3c b3fc 50bc 316f 743d 3b4a 80bc
000001a0: 4bf4 1abd 5484 8dbb cbe5 d53c b88a 8cbb
000001b0: 65cc 97bc 42e6 1dbd c9f5 1dbd ed39 51bd
000001c0: 13a4 203d 0a46 f9bc fb0c 89bd 4c94 873e
000001d0: 8aca 0d3e e986 15bb b059 063b 8670 a9bb
000001e0: 25c7 e33c 5469 1ebd 99a8 cabb c47d 8f3d
000001f0: 3aa2 85be dbe9 0ebe 38bd ebbb 1c83 00bc
00000200: 98f6 113b cf69 bd39 7af4 1fbb 2e83 98bb
00000210: 5eca b23a ce6c 313b 3057 0f3b ae64 98bb
00000220: cf7e af3b 4cff 04b9 d3f4 46bf 9f32 b4be
00000230: f3b8 f4bd d266 51be 1a71 f7bb 78a8 bcbe
00000240: ff1b bd3a 562c bab9 9fa2 c4ba 7ef7 123a
00000250: 86e0 273a 2bd1 df38 6b8a 42b9 3ded d3b9
00000260: 38ef c837 1b59 713b 1311 6bba 53f3 b6ba
00000270: ee08 67be b2d1 16bf 8ec2 3c3e 54d9 703d
00000280: 540a fe3d 2a9a 06bf 882c b5b9 30a4 b53a
00000290: ce86 9838 40ff 7fb9 b83b 1bba 8441 0dba
000002a0: 5a29 0ebb 8d22 f439 770e a139 27cc 423a
000002b0: 8179 0dba 8d93 083a bee2 cc3d ae0a 1bbe
000002c0: 4ebb 82be 504d 97bf 7518 da3d 8db4 343e
000002d0: 8548 ffbc d0bf 8fbc 2e29 03bc 19aa 0f3d
000002e0: d20e 703c 4f29 283d b12a 1f3c 4bec 523c
000002f0: fd18 9a3c 3c87 73bc 2a98 9e3c c41d 283d
00000300: c857 09be be84 09be 6118 ef3d 21bf 453e
00000310: 4ff6 b4be 1e8e 233f c3d1 4d3a 935c 9136
00000320: 440c 3d39 baa4 e3b7 0f33 8539 7048 6fb9
00000330: 64a6 9439 636b 2e39 2f54 ea39 b98d 1c3a
00000340: f1ea e639 8699 43ba 496b 2c3f 98f2 93be
00000350: 77b4 f8bd f394 313e f835 9abe f577 6e3b
00000360: cbce aa3c 5388 00bd 4f59 903c 05af 863b
00000370: d020 e0bc b586 a8bb a1ca 14bd 498f fdb9
00000380: c163 6dbc 7c91 0cbd f5a2 9cbb 7885 803c
00000390: c0f3 83be 3a5d 90bd b00a 473e da18 013e
000003a0: 561e babe 4b2f 413c 0178 ddbc 184d e9bd
000003b0: 2c89 8f3c 3046 61bc 14af 52bc 21b2 823a
000003c0: d896 063c b433 fb3b 58bc 423b e987 ad3d
000003d0: ee7d e93d e082 693e 0aff 01bb 36fa febe
000003e0: 63fd 17bd d1a3 043f 3736 743f bb3a 9f3e
000003f0: 23f3 4e3c 61aa 4b3c 3de2 c7bb 6caf 1a3b
-0.00031870804 -0.0018782752 0.0006833595 0.00057838456 -0.00042358696 0.00023238103 0.0004355651 -0.0011239658
-0.0011462796 0.00041974106 -0.0010481011 0.00043833602 -0.3287901 0.108082525 0.100945525 -0.0075824643
-0.19118418 0.5202004 0.0022002745 -0.005191804 -0.0004655189 0.0014550532 -0.0003756601 0.00034951107
0.00058748986 0.0002012866 -0.0014117033 0.0039587594 -0.0032845265 -0.00078449654 0.8169997 -0.20151596
-0.3154093 0.19864301 0.34916323 0.30175185 -0.0026573264 0.0017370918 0.004474107 0.0020521693
0.0070844176 -0.0011662978 -0.0039704903 -0.00021707405 -0.005808431 0.007865767 -0.045868933 0.0247848
0.5229943 -0.3515827 0.025823263 -0.13752307 0.23192222 -0.2069873 0.0005896182 0.0015443354
0.00016518359 0.00085586455 0.0006902832 0.0005362927 -8.907566e-05 -0.0020292946 -0.0005102202 -0.0014248957
-3.141618e-05 0.00062291813 -0.24325846 -0.05645395 -0.09143371 0.5887207 0.19120346 -0.3539056
0.0069477777 0.0014615757 0.0097158365 -0.0025368608 0.0014097303 0.007866259 0.008876534 -0.0038170277
0.0015793864 0.00030914965 -0.011674277 0.007238036 -0.07498663 -0.266694 -0.3590585 0.06988544
-0.058518294 0.13717966 0.06674065 0.10284926 0.056649666 0.007863576 0.023195717 -0.0012001046
0.0020741222 -0.0067192735 -0.013651044 0.017266655 0.018968724 -0.012755561 0.059676353 -0.015660396
-0.037830632 -0.0043187533 0.02611055 -0.0042889975 -0.01853008 -0.03854967 -0.038564477 -0.051080633
0.039218973 -0.030428905 -0.06691929 0.2648033 0.13846794 -0.0022816008 0.0020500235 -0.0051708845
0.02780492 -0.038674667 -0.006184649 0.0700641 -0.26100332 -0.13956396 -0.0071941875 -0.007843759
0.0022272225 0.00036127723 -0.0024407194 -0.0046543097 0.0013640632 0.002707291 0.0021872036 -0.004650674
0.005355693 -0.00012683606 -0.7771732 -0.3519487 -0.11949339 -0.20449379 -0.0075513246 -0.3684728
0.0014427899 -0.00035509717 -0.0015002078 0.0005606337 0.0006404001 0.00010672429 -0.00018552846 -0.00040421812
2.3953253e-05 0.0036826793 -0.0008967083 -0.0013958014 -0.22562 -0.5891372 0.18433592 0.05880101
0.12404314 -0.52578986 -0.0003455619 0.0013858136 7.273034e-05 -0.00024413783 -0.00059216795 -0.0005388486
-0.0021692128 0.0004656505 0.0003071909 0.0007430934 -0.00053968286 0.0005209975 0.10004185 -0.15140793
-0.25533527 -1.1820469 0.10649196 0.17647 -0.03116251 -0.017547518 -0.0080054235 0.035074327
0.014651971 0.04105502 0.009714768 0.012873719 0.018810743 -0.014863785 0.019359667 0.04104401
-0.13412392 -0.13429543 0.11674572 0.19311191 -0.3534417 0.6388873 0.00078513863 4.332114e-06
0.00018029014 -2.7137216e-05 0.00025405778 -0.00022819801 0.0002835273 0.00016633938 0.0004469468 0.0005972046
0.00044044064 -0.00074615364 0.67351204 -0.28896022 -0.12143796 0.17341976 -0.301193 0.0036387418
0.02085056 -0.03138001 0.01762071 0.0041102194 -0.027359396 -0.0051430115 -0.036326054 -0.00048362676
-0.014489115 -0.034318432 -0.004780168 0.015688643 -0.25771904 -0.070490316 0.1943767 0.12607136
-0.3635127 0.011791061 -0.027034761 -0.113916576 0.017521463 -0.013749644 -0.012859125 0.00099713
0.008214675 0.0076660756 0.0029714312 0.084731884 0.11400972 0.22803831 -0.0019835853 -0.4980027
-0.037106883 0.51812464 0.95395225 0.31099495 0.0126312105 0.012430758 -0.0060999678 0.0023603095

model.0.bias f4 [64]
00000000: 6507 3dbf ce46 32be d5b4 e53e 87ac 12bf
00000010: 23cd 14bf 79a3 9f3e 06bd 24be 60ef d4be
00000020: a501 84ba ada1 433e 7fb0 063f 49c3 3c3f
00000030: c658 cc3e 3eda bcbe 9dcb c03d 7939 31bf
00000040: 3b73 4b3f 855d 3c3f 8dc1 963b 8c4e dcbe
00000050: e247 3cbe afb6 21bc 6621 77be c467 3d3f
00000060: 1c97 ddbe 5fa3 cb3d a9f9 4ebe 8991 02bf
00000070: e4a5 57bf 1449 26be aabb 4fbe 8963 8dbe
00000080: 4320 073f 0e9f 0d3f 9c61 c2be aaa5 b5be
00000090: ed39 333f 40aa 4b3f 7867 883f 4a00 c73e
000000a0: 971b 1ebe e07d 013d 0f7f 033e 30e3 edbd
000000b0: bbe4 dd3e fafd 8abb ad12 5bbe 85c0 283f
000000c0: eac3 6a3e 6ea4 bb3e 9e0c c03e 56c3 7a3e
000000d0: b364 453a d48d 9ebe 8619 5abd 40ef dcbc
000000e0: 5848 9b3e 55db 10bd 001b c9be c52f 8f3e
000000f0: e28f 8b3c 0e34 1d3d ce39 54be 8cec 3d3f
-0.7383941 -0.17409822 0.44864526 -0.57294506 -0.58125514 0.31179407 -0.16087732 -0.4158888
-0.0010071291 0.19104643 0.5261306 0.7373548 0.3991148 -0.36885256 0.09413836 -0.6922832
0.794727 0.735802 0.00460071 -0.43028677 -0.18386796 -0.009870215 -0.24133834 0.7398646
-0.4327935 0.0994327 -0.20212425 -0.5100332 -0.84237504 -0.16238815 -0.20286432 -0.27615002
0.527836 0.55320823 -0.37965095 -0.35477954 0.7001026 0.79556656 1.0656576 0.38867408
-0.15440212 0.031614184 0.12841438 -0.11615598 0.4333857 -0.004241702 -0.21393843 0.6591876
0.22926298 0.36648887 0.37509626 0.24488577 0.0007529959 -0.3096758 -0.053246997 -0.026969552
0.3032863 -0.03536542 -0.39278412 0.27966133 0.017036382 0.03837972 -0.20725176 0.74189067

model.2.weight f4 [64, 64]
00000000: 3991 c0be f492 473e d448 47bc 5149 643e
00000010: 0fcf 7e3d 96b2 b03b 6a67 b8bb fdbb 40bd
00000020: e795 0e3e 2a5f 5ebd 514c 833d d39a 84be
00000030: 083c ac3d 4867 34bb c8d4 923d 5a86 3c3d
00000040: bff9 083f bd7f 0b3f 67b6 6d3c 81cc a73d
00000050: 97e9 f63a b03d 463c 4b26 e3be 8bda 1c3d
00000060: 5fac 48bd e1f0 823d 2467 b8bc 6ea0 d03d
00000070: c419 43bf ca18 0dbe b00f 35bc 8d16 883b
00000080: 0970 8abe ffb8 fd3e fd80 fe3d 7cac a8bc
00000090: 3683 8b3d e359 40bd 60d2 55be 0bf4 ae3d
000000a0: 9034 0dbd 96c2 073e eb34 aebc 2af5 503e
000000b0: 6cc5 e53b d5d2 b3ba 5dd5 b73d f21c e7bd
000000c0: 86d0 42be efdb c6be 5098 d1bb 43f6 533c
000000d0: 45db d4bd 6ce7 5ebc dfb0 e0bc 4b67 e83b
000000e0: 5a76 c7bd 15fd 32bb 85ba e8be 0909 173d
000000f0: 7d81 2abb 8bb6 683c 2cd4 8dbe b2a9 8c3d
00000100: 8ba3 343e f8a8 5bbe 4dfb c03d 907c 6f3d
00000110: 2fdb e9bd c4ac 15bb 4880 d9bc d37a d6be
00000120: fd9c 9e3e 7bb2 78be ad93 753d a898 87be
00000130: cc1e 183b 3cda 06bc b775 ac3c a230 9ebd
00000140: 6c7f 1dbf 8987 74bf 808b 31bb fce2 45be
00000150: 1e9b a9bd 5d3b 40bc 5345 e9bd b629 f53d
00000160: 3ff4 c1bb 7889 373c e286 c7bd f862 0ebe
00000170: cef9 56bf 05a4 4b3d 745e 343e 059c 1d3d
00000180: 6c46 8b3e 97db 87bd 5bd4 06be 3d68 5a3d
00000190: 2e8b a23c bc12 80bd 4de6 3a3b fc51 1a3e
000001a0: b5e1 12bb 1882 e73e 0357 b43e 83d6 653d
000001b0: 046d 6f3d 5a0c 2b3d 78d3 84be e0dd 7bbe
000001c0: 1eea e9bd e7de 1dbf e638 4b3e b19e 6dbb
000001d0: c788 433c 4bf8 ab3d 17e6 293c 4d0d 963b
000001e0: 0c19 003e 3aaa a93b 2a20 3f3e 5786 673e
000001f0: 29e0 8ebd 536b 3abb 0686 eabc 5e3a 6f3e
00000200: 92fe e2be 2e8d b03e 0cba 1bbc 2d31 d6bd
00000210: 5c5b 413d 19ce f53c c39c ebbb 3af9 a53d
00000220: 1d2e cb3d 5df3 babc 8b79 f63d bd1f 86be
00000230: 5a95 153e 279a 06bd 8ade 0dbe f03d 9a3d
00000240: afee 913e 3cfa 8dbc 1147 dd3b 0466 6cbc
00000250: 8016 d93c 20d2 933d f8e7 4a3e 6954 6f3d
00000260: a8d5 07be d4f8 c5bd 6232 9b3c df67 c23d
00000270: cb12 c03d 2ac1 173e d201 46bc 54e1 eebc
00000280: 16f4 413d 4ddd 2fbe 5e68 9aba 2e4f ecbc
00000290: ebe1 ea3c 6300 3b3e acf1 d83b 3d0a d4be
000002a0: 92f4 7f3d 9d71 f8bd 408b 9f3e 4c3d 3bbe
000002b0: 6961 c63d 89dd c8bb 87d6 a8bd 2c0c 11bd
000002c0: 9530 913d c7c1 da3e 48b1 843d 6056 513c
000002d0: 078a 0a3e 91f3 903c 455e 5dbd f612 b93c
000002e0: 2a18 7bbb a006 53bb 6259 bf3d b719 30bd
000002f0: 80de 1b3d cadc 51bc 4bcc 8a3e 7dd9 a83a
00000300: 80b4 053f f830 04be 6729 e5bb b300 44bc
00000310: eaf3 55be 6c07 c33b 2213 13bd 096a 06bd
00000320: 6cfd 33bd 5cb3 073e 688a 83bd 6560 c9bc
00000330: d57c debc cb22 0a3e 3e98 3ebd 9eef 7d3d
00000340: 4e1a 80bd 6035 c63e 3b12 fcbd b4b1 a2bd
00000350: c29a 91bc e745 793d 6333 3b3e 4f54 493e
00000360: f2cf 58be bb3b 40be 460c 113e 1d13 f9be
00000370: 04ec 003f 20d9 713e 9dfd 18be 0aee 183e
00000380: 2547 b23e ad55 90bd 67dc b7bd 979e 08bd
00000390: eff3 55bd e89b 563e bdf8 dbbe 8508 0c3d
000003a0: 56c8 70be c753 ee3e a96a d83d 0aab 00bd
000003b0: ff3d 5f3e d407 af3d 990b 98bd 188b 14be
000003c0: 23c2 c2bc 5e2a 213d 646a 37be 0def fbbc
000003d0: a347 543e 2575 ba3d 1f54 823d 5e9e bbbd
000003e0: 76a8 2d3e 83b6 d9bc 2f01 34be f4aa b23d
000003f0: dba3 8ebc 6fcf c0bc 7b40 47bd e843 7e3e
-0.37610796 0.19489652 -0.01216336 0.22293593 0.062209185 0.005392383 -0.0056275623 -0.04705428
0.1392437 -0.054289974 0.064110406 -0.25899372 0.084098876 -0.002752738 0.07169491 0.046026565
0.5350608 0.5449179 0.01450882 0.08193303 0.0018837926 0.012099668 -0.44365153 0.038294356
-0.04899251 0.063936 -0.022510119 0.101868495 -0.7621119 -0.13778988 -0.0110511035 0.004153079
-0.270386 0.49555203 0.12426946 -0.02059006 0.06812136 -0.046960723 -0.20881033 0.08542641
-0.034473956 0.13257822 -0.021265468 0.20406023 0.00701206 -0.0013719449 0.08976243 -0.11284818
-0.19024858 -0.3883967 -0.006396331 0.012937131 -0.10393385 -0.01360498 -0.027428089 0.0070923916
-0.09739371 -0.0027311493 -0.45454803 0.03687385 -0.0026017122 0.014203678 -0.27700937 0.06868304
0.17640512 -0.21451175 0.09422932 0.0584684 -0.11418759 -0.0022838572 -0.026550427 -0.41890582
0.30979148 -0.24286835 0.059955288 -0.26483655 0.0023211716 -0.008230742 0.021052225 -0.0772412
-0.61522555 -0.9551931 -0.0027091205 -0.19324869 -0.082815394 -0.011732903 -0.11390176 0.11970846
-0.005919009 0.011202209 -0.09742524 -0.13904941 -0.8397492 0.049716968 0.17614156 0.03847887
0.27202165 -0.0663368 -0.13166945 0.053322066 0.019841757 -0.06253573 0.0028518618 0.15070337
-0.0022412364 0.4521644 0.35222635 0.056112777 0.058453575 0.041759826 -0.25942588 -0.24596357
-0.114216074 -0.61668247 0.19845924 -0.0036257918 0.011934466 0.083969675 0.010369799 0.0045792223
0.12509555 0.0051777633 0.18664613 0.2260984 -0.06976349 -0.0028445318 -0.02862836 0.23362109
-0.44334847 0.34482712 -0.009504806 -0.10458598 0.047206268 0.030005502 -0.0071903183 0.08104177
0.09920905 -0.022821123 0.12034901 -0.2619609 0.14607754 -0.032861855 -0.13854423 0.07531345
0.28502414 -0.017331235 0.0067528565 -0.014428619 0.026499987 0.072178125 0.19815052 0.05843011
-0.13265097 -0.09666601 0.018944923 0.09492468 0.093785845 0.1481978 -0.012085395 -0.02916018
0.04735192 -0.17174263 -0.0011780371 -0.02884635 0.02867218 0.18261866 0.0066206064 -0.4141406
0.0624891 -0.12131045 0.31160927 -0.18285102 0.09686548 -0.0061299247 -0.08244043 -0.035412
0.070893444 0.42725965 0.06479126 0.012776941 0.13529216 0.017694267 -0.05404498 0.02259205
-0.0038313963 -0.0032199994 0.0934322 -0.042993274 0.03805399 -0.012808988 0.27108988 0.0012882199
0.52228546 -0.12909305 -0.006993461 -0.011963057 -0.20893827 0.0059518125 -0.03590692 -0.032815967
-0.043942854 0.13252014 -0.06422883 -0.024582097 -0.027159134 0.13489835 -0.04653191 0.061996095
-0.06255017 0.38712597 -0.12308165 -0.079440504 -0.01777399 0.06085768 0.18281321 0.19661067
-0.21173075 -0.18772785 0.14164838 -0.48647395 0.5036013 0.23617983 -0.14940496 0.14934555
0.34819904 -0.07047591 -0.08977585 -0.033354368 -0.052234586 0.20957911 -0.4296321 0.034187812
-0.23513922 0.46548292 0.10567219 -0.031413116 0.21800993 0.08546415 -0.07424087 -0.14506185
-0.023774212 0.039347045 -0.17911679 -0.030753637 0.20730452 0.09104375 0.06363701 -0.091610655
0.16958794 -0.026576286 -0.17578577 0.08724013 -0.017412117 -0.023536412 -0.048645478 0.24830592

model.2.bias f4 [64]
00000000: 2f90 8fbe f5a5 493e e763 8b3b 9a2e 843e
00000010: cdc4 353e 2427 833e e15c 8f3e e905 423b
00000020: 681b fb3d 97c4 9ebd 9112 c03d 126a 9c3e
00000030: da37 d1bd f2f2 aa3a f602 e2bd dcdd 1f3d
00000040: e53a a23e b850 9b3e 3834 483d 193b ae3d
00000050: 31b1 223e 3011 293e dff6 c8bd 79e8 cabc
00000060: e8de 2d3d 7ec9 e73d 2098 183e 16ca 9b3e
00000070: f7d5 cabe c961 ba3d f186 d7bd d4bd e4bd
00000080: 3ce1 dcbe 9099 97be 5b91 4fbd 9c89 073e
00000090: b07d 163e ed5b 48be 1cdd 873d 1e9c d53e
000000a0: 7d2e 9ebc 6cee b53e 36d3 b5bd e771 fbbd
000000b0: ad6e 473e a06f 06be 76a8 ca3d aab2 9a3c
000000c0: 7a49 3bbe 8d39 12bd da0d 023f c17b 433e
000000d0: 32ee 8f3c 87ee 73bd d7db 8dbd d08d b03e
000000e0: 1654 7a3c 626f 48be 505c 1d3d c9e4 2e3e
000000f0: de25 093d 8db2 68bd 8ec1 8f3d 9b41 ce3d
-0.2803969 0.19692214 0.0042538526 0.25816804 0.17750855 0.256158 0.28000548 0.0029605574
0.12261087 -0.0775234 0.09378541 0.30549675 -0.10215731 0.0013042374 -0.11035721 0.03902994
0.31685558 0.3033502 0.048877925 0.08507366 0.15887906 0.16510463 -0.09812712 -0.024769055
0.042448908 0.113177285 0.14901781 0.30427617 -0.39616367 0.09100682 -0.10523785 -0.11169019
-0.4314059 -0.29609346 -0.05067573 0.13236088 0.14696383 -0.19566317 0.0663397 0.4172067
-0.019309277 0.35533464 -0.08878176 -0.122775845 0.19475813 -0.13128519 0.098954126 0.018884022
-0.18289748 -0.035699416 0.50802386 0.19090177 0.017569635 -0.05955365 -0.06926697 0.34483194
0.015278837 -0.19573739 0.038418114 0.17079462 0.03348338 -0.056810904 0.070193395 0.10071107
